TFLite/New folder/CNN-implementation_TFLiteModel.tflite (tflite, 50932 bytes, 6 tensors)

sequential/conv1d/BiasAdd/ReadVariableOp f4 [32]
0	0xbc1b8119	-0.0094912285
1	0xbf11a82e	-0.56897247
2	0x3cb4849f	0.022035895
3	0x3b7460f1	0.0037289227
4	0x3e88b7c1	0.26702693
5	0x3c04057d	0.008057949
6	0x3f299f0e	0.66258323
7	0x3ee10df0	0.43955946
8	0x3b0caa28	0.0021463726
9	0xbdab82fb	-0.08374592
10	0xbf28a5b6	-0.65877855
11	0x3eaec9c3	0.34138307
12	0xbdd92d5e	-0.10604356
13	0xbe8310bc	-0.25598705
14	0x3d9264dd	0.071481444
15	0x3ce2454f	0.02762094
16	0x3f3d27dd	0.7388895
17	0xbd88944a	-0.06668909
18	0x3e186bef	0.14884923
19	0xbe2a1308	-0.16608822
20	0x3ed9303b	0.4241961
21	0xbc1d8ff7	-0.009616843
22	0xbe890776	-0.26763505
23	0x3da4de9d	0.080502726
24	0xbefcc999	-0.49372557
25	0x3e1c7922	0.15280584
26	0xbe718641	-0.2358637
27	0x3d05cb0d	0.032664347
28	0xbdc81cb3	-0.09771099
29	0xbd4ab136	-0.049485408
30	0x3e47f42b	0.19526736
31	0xbca770bc	-0.020439498

sequential/conv1d/Conv1D f4 [32, 1, 3, 3]
0	0x3c12f8fa	0.008970493
1	0xbc6da6db	-0.0145051135
2	0xbde9acaa	-0.11409886
3	0xbdfd5bb2	-0.12371005
4	0x3da94bd9	0.0826642
5	0xbd09db3f	-0.033656355
6	0x3e06e222	0.131722
7	0x3ddfc204	0.109256774
8	0xbd4db1a3	-0.050218236
9	0xbd68588b	-0.056725066
10	0x3eb027fb	0.34405503
11	0x3e081404	0.13288885
12	0x3e0b02d6	0.135753
13	0xbc6b7ef6	-0.014373532
14	0xbe1fb5de	-0.1559672
15	0xbeb12a25	-0.34602466
16	0x3e649711	0.22323252
17	0x3d93addc	0.072108954
18	0x3f02385a	0.50867236
19	0x3e17214e	0.14758798
20	0xbeb1a354	-0.34694922
21	0xbe9d10d8	-0.30676913
22	0xbd23594c	-0.039880082
23	0x3e0f711a	0.14007989
24	0xbefa158c	-0.48844564
25	0xbd5b1d19	-0.053494547
26	0x3e7a6dfc	0.24456018
27	0x3e92143a	0.28531057
28	0xbec67463	-0.3876067
29	0xbe225b4d	-0.15855141
30	0x3e4ee8c6	0.20205984
31	0xbe0df303	-0.13862233
32	0x3e6181fc	0.22022241
33	0xbf11523f	-0.5676612
34	0x3f070c21	0.5275288
35	0xbd00e758	-0.031470627
36	0x3e132e20	0.14373064
37	0xbf278587	-0.6543812
38	0x3e362587	0.17787753
39	0xbe33f984	-0.17575651
40	0xbd823cb6	-0.06359236
41	0xbe54948e	-0.20759794
42	0xbd45d126	-0.048295163
43	0x3ee79101	0.45227817
44	0x3dad09d2	0.08449139
45	0x3d136bbb	0.03599141
46	0xbe365017	-0.1780399
47	0xbf71d2d1	-0.94462305
48	0x3e7e39c7	0.24826728
49	0x3e3f0ba0	0.18656778
50	0xbf156567	-0.5835785
51	0x3e8412a6	0.25795478
52	0xbdf7680f	-0.120803945
53	0xbf8613e2	-1.0474818
54	0x3ef99ddd	0.48753253
55	0xbf3e4ec3	-0.7433893
56	0xbe9ea987	-0.30988714
57	0xbd8dd62b	-0.06925615
58	0xbec747e1	-0.38922027
59	0xbeba7639	-0.36418322
60	0xbe19a31f	-0.15003632
61	0xbecb6092	-0.39722115
62	0xbf3397ee	-0.701537
63	0xbf4355f2	-0.7630302
64	0xbe99c651	-0.30034116
65	0xbea71da0	-0.3263979
66	0xbf0be75c	-0.546499
67	0xbe811555	-0.25211588
68	0xbb1b344c	-0.0023682294
69	0xbf03b2e4	-0.5144484
70	0xbe8e2018	-0.2775886
71	0x3f26d85d	0.65173894
72	0x3eade515	0.33963838
73	0xbe6e3791	-0.23263384
74	0xbf8b77a7	-1.089589
75	0x3e561f79	0.20910443
76	0xbe34b538	-0.17647254
77	0x3e772aeb	0.24137466
78	0xbedf52af	-0.4361777
79	0x3eb6819f	0.35645768
80	0x3f5e5b4b	0.8685805
81	0xbdaeb239	-0.08530087
82	0x3eee495f	0.46540353
83	0x3f38c6be	0.72178257
84	0xbe4eba86	-0.2018834
85	0xbe19a780	-0.15005302
86	0x3e2924eb	0.1651799
87	0x3f3ecabc	0.745281
88	0xbe603f55	-0.21899159
89	0x3ea3b69e	0.31975263
90	0x3e9fda03	0.31221017
91	0x3defb155	0.11703745
92	0xbd6f37f0	-0.058402956
93	0xbe02692f	-0.12735437
94	0x3ecc4bec	0.39901674
95	0xbe2c56c5	-0.16829975
96	0xbe511c28	-0.20420897
97	0x3e8ce8c5	0.2752134
98	0xbe67c5d7	-0.22634064
99	0xbe328a58	-0.17435586
100	0xbdbf09d8	-0.093280494
101	0x3e45e608	0.19326031
102	0xbe788455	-0.2426923
103	0xbd833592	-0.06406702
104	0x3eab41c2	0.33448607
105	0xbea31421	-0.31851295
106	0x3e1feaca	0.15616909
107	0x3e4fe199	0.20300902
108	0x3f3366dc	0.70078826
109	0x3e984889	0.2974284
110	0x3d103e80	0.035215855
111	0x3dbb7ac9	0.09154279
112	0xbcfb46e7	-0.030673457
113	0x3d869fa4	0.06573418
114	0x3f199a81	0.6000138
115	0x3ec3f527	0.38272974
116	0x3ae04679	0.0017110846
117	0x3f6f3b5f	0.9344997
118	0x3e1d1e4e	0.15343592
119	0xbf155159	-0.5832725
120	0x3f1dc35f	0.6162624
121	0xbea6240b	-0.32449374
122	0xbf28eedc	-0.6598947
123	0x3e9b0f0e	0.30284923
124	0xbf17b63d	-0.5926245
125	0xbf374708	-0.7159276
126	0xbf3ea0dc	-0.744642
127	0x3e748636	0.23879322
128	0xbe00cd3d	-0.12578292
129	0xbe7db084	-0.24774367
130	0x3e0ef2f0	0.13959861
131	0xbf094cb2	-0.5363265
132	0xbf28ede5	-0.65988
133	0x3ce3dc26	0.027814936
134	0xbeb4c9a3	-0.35310087
135	0xbd003a99	-0.031305883
136	0xbe005ba2	-0.12534955
137	0x3f742607	0.95370525
138	0xbf08224d	-0.5317734
139	0xbd34414d	-0.04400759
140	0x3f1875c4	0.59554696
141	0xbcea340f	-0.028589277
142	0xbc46a433	-0.012124109
143	0x3ecd1c25	0.40060535
144	0xbe9701ef	-0.29493663
145	0xbf594b1d	-0.8488024
146	0x3efae9ae	0.49006408
147	0xbe7bc30e	-0.24586126
148	0xbf240969	-0.6407686
149	0x3ed1bc89	0.40964153
150	0xbe992a6a	-0.29915172
151	0xbe995ceb	-0.29953703
152	0x3f2a3cfb	0.664993
153	0xbe99a060	-0.3000517
154	0x3ec11d85	0.37717834
155	0x3ddf02a5	0.10889176
156	0xbd3a3f5e	-0.045470588
157	0x3e8fbaff	0.28072354
158	0x3dd4fb8c	0.10399541
159	0xbedfb8fa	-0.43695813
160	0x3ea309e4	0.31843483
161	0x3e02ceb0	0.12774158
162	0xbf16ce3b	-0.5890843
163	0xbe764d8e	-0.24053022
164	0x3eae043e	0.33987612
165	0xbea4cde5	-0.32188335
166	0x3e702134	0.23450166
167	0x3ec46ee0	0.3836584
168	0xbe368fcc	-0.17828292
169	0x3ce83c6a	0.02834912
170	0x3e96529f	0.2935991
171	0x3d955008	0.072906554
172	0x3e6432a8	0.22284949
173	0x3f476bde	0.7789897
174	0xbd3dccc8	-0.046337873
175	0x3ca8e8d2	0.02061883
176	0x3f5310d0	0.8244753
177	0x3dbfab9a	0.09358902
178	0x3d940ebd	0.072293736
179	0x3f5d0199	0.8633056
180	0x3e132f1e	0.14373443
181	0xbf320a94	-0.6954739
182	0xbe72f925	-0.23727854
183	0xbec41b8c	-0.38302267
184	0xbf0b26ae	-0.54355896
185	0xbf1619a6	-0.58632886
186	0x3ec6e60f	0.38847396
187	0x3d0cb035	0.03434773
188	0xbeb6dfa6	-0.35717505
189	0xbdc23aa6	-0.094838426
190	0xbe15d28c	-0.14631099
191	0xbf80b0bf	-1.0053939
192	0xbe1c6477	-0.152727
193	0xbeac1486	-0.33609408
194	0xbf3a78fd	-0.72840863
195	0xbedefb24	-0.4355098
196	0xbd88cbc7	-0.066794924
197	0xbf53a772	-0.82677376
198	0xbe82653d	-0.25467864
199	0x3ed550b7	0.41663143
200	0x3f1ac645	0.60458785
201	0xbe93ad33	-0.28843078
202	0x3e2bbecd	0.16772003
203	0xbc9ece89	-0.019385593
204	0x3f0d28b5	0.5514024
205	0xbeac11c5	-0.33607307
206	0xbf2df031	-0.6794463
207	0x3c4f756c	0.012662273
208	0xbe466c9f	-0.19377373
209	0xbf0a2bf6	-0.5397333
210	0xbdee2026	-0.116272256
211	0x3e07a38f	0.13245986
212	0xbf08493e	-0.5323676
213	0x3efb266e	0.49052757
214	0x3db1fdc0	0.08690977
215	0xbe104b00	-0.1409111
216	0xbf28eb56	-0.65984094
217	0x3e3cd79f	0.18441628
218	0xbec79900	-0.38983917
219	0xbf266cd3	-0.650098
220	0x3ddfd067	0.109284215
221	0xbe9e7ff0	-0.30956984
222	0xbeec74b2	-0.4618278
223	0x3e4f45c7	0.20241462
224	0xbeedcd0b	-0.46445498
225	0x3e5cfd50	0.21581006
226	0x3e15a52a	0.14613786
227	0x3e763d89	0.24046911
228	0x3d98ba4a	0.07457407
229	0x3d6c646b	0.057712954
230	0x3ecc4e6a	0.39903575
231	0x3ea280f0	0.31738997
232	0x3e322bb1	0.1739948
233	0x3ec2b544	0.3802892
234	0xbe61b053	-0.22039919
235	0xbea39900	-0.31952667
236	0xbe68e0a1	-0.22741939
237	0xbdcde156	-0.10052745
238	0x3e6bf5ee	0.23043033
239	0xbdc3f402	-0.09568025
240	0x3e85d137	0.2613618
241	0x3ea58b23	0.32332715
242	0x3e99702a	0.29968387
243	0xbe040c76	-0.12895378
244	0x3e0cc54d	0.1374714
245	0x3e943fd9	0.28954962
246	0xbe0f7734	-0.14010316
247	0x3cfd4527	0.030916763
248	0x3e3ccda5	0.18437822
249	0x3d80dbda	0.06291933
250	0x3e5b545a	0.21418896
251	0x3e39dca9	0.18150581
252	0x3e05265a	0.13002911
253	0x3e80708a	0.2508586
254	0xbe69bc07	-0.22825633
255	0xbbebbeb4	-0.0071943644

sequential/dense/BiasAdd/ReadVariableOp f4 [32]
0	0x3dc7aafa	0.09749408
1	0xbcbecac5	-0.023290047
2	0x3de4864d	0.11158428
3	0x3e8fd452	0.28091675
4	0xbd409056	-0.04701265
5	0x3e8fca17	0.2808387
6	0xbd52440f	-0.051334437
7	0x3d1afa29	0.037836228
8	0xbe86081f	-0.2617807
9	0x3b93b209	0.0045073074
10	0x3eb5f105	0.35535446
11	0xbe77d97e	-0.2420406
12	0xbeb7bfe7	-0.35888597
13	0x3e526f8d	0.20550366
14	0x3db5f3c0	0.08884382
15	0xbe7436f7	-0.23849092
16	0xbe9ed160	-0.31019115
17	0xbe667f5f	-0.22509526
18	0x3d2723e2	0.040805705
19	0xbdcab238	-0.09897274
20	0x3e4978b3	0.1967495
21	0xbc767598	-0.015042685
22	0x3e39ac2b	0.18132083
23	0x3c83b8c1	0.016079308
24	0x3e1584e0	0.14601469
25	0x3ed0a0a0	0.40747547
26	0x3e99235f	0.29909799
27	0xbd1e4248	-0.03863743
28	0xbe09e8c7	-0.13467704
29	0x3ce65284	0.028115518
30	0xbd83c866	-0.06434707
31	0x3debe23b	0.115177594

sequential/dense_1/BiasAdd/ReadVariableOp f4 [6]
0	0xb8933516	-7.019394e-05
1	0xbf0713d2	-0.5276462
2	0xbde66824	-0.11250332
3	0xbcfd1b6d	-0.030896867
4	0x3e1f946a	0.15583959
5	0x3e990ba5	0.29891697

sequential/dense/MatMul f4 [32, 352]
0	0x3e6772d9	0.22602405
1	0x3d9fa903	0.07795908
2	0x3d4e3f71	0.05035347
3	0x3bc37c22	0.0059657255
4	0x3e8cf99d	0.2753419
5	0x3ebfa635	0.37431493
6	0xbdf74188	-0.12073046
7	0xbd9ab17a	-0.07553382
8	0xbceccf0a	-0.028907318
9	0x3df82d43	0.12118008
10	0x3e1ff670	0.15621352
11	0x3d8ef1a4	0.06979683
12	0x3de64d78	0.11245245
13	0x3ea0eff5	0.31433073
14	0x3d9c21ad	0.07623611
15	0x3eb60e10	0.35557604
16	0x3e19a679	0.1500491
17	0x3e57dc8a	0.21080223
18	0x3eb7e8c8	0.35919785
19	0x3e7bea9b	0.24601214
20	0x3d8fd13e	0.07022332
21	0x3ef0deef	0.47045085
22	0x3d9ccda3	0.076564096
23	0x3e63740b	0.22212236
24	0x3e1123a7	0.14173757
25	0x3ea77122	0.327035
26	0x3e18558d	0.14876385
27	0x3e16e261	0.14734794
28	0x3db09a51	0.086231835
29	0xbe86228e	-0.26198238
30	0x3e5df612	0.216759
31	0x3c2d4c8b	0.010577331
32	0x3da34263	0.07971647
33	0xbde5d774	-0.11222735
34	0xbda659cf	-0.081225984
35	0x3942b69d	0.0001856931
36	0x3e96d6a2	0.29460627
37	0x3e8151c5	0.25257698
38	0xbf0a77ec	-0.54089236
39	0x3d63995a	0.05556617
40	0xbd81d0c7	-0.06338649
41	0x3d99fe9b	0.07519265
42	0x3df2fc7a	0.11864562
43	0x3e2b4c09	0.16728224
44	0x3c9e7263	0.019341653
45	0x3ed44956	0.414622
46	0x3cae5bdf	0.021284042
47	0x3ecb5b99	0.3971832
48	0x3dd30fa3	0.10305717
49	0x3e326cf6	0.17424378
50	0x3e63a038	0.22229087
51	0x3e769526	0.24080333
52	0xbde61535	-0.11234514
53	0x3e906754	0.28203833
54	0x3e0ba317	0.13636433
55	0x3ebd19e3	0.36933812
56	0xbc888d41	-0.016668918
57	0x3d93ef59	0.07223386
58	0x3d81ed1d	0.06344054
59	0x3e164a76	0.14676842
60	0x3e12c1cb	0.14331739
61	0xbec8129b	-0.39076695
62	0x3e8c96af	0.27458712
63	0xbd7301d2	-0.059327908
64	0x3e3501ac	0.17676419
65	0xbe0cd2e0	-0.13752317
66	0xbd9f271c	-0.077711314
67	0xbe0dab10	-0.13834786
68	0x3e486be2	0.19572404
69	0x3db05be3	0.08611276
70	0xbea0fc3d	-0.31442443
71	0x3e12a455	0.143205
72	0x3c9a380e	0.018825557
73	0x3e25f449	0.16206469
74	0xbd9dbe77	-0.07702344
75	0x3daf7dbb	0.08568903
76	0xbda7b8b3	-0.081895255
77	0x3e08385f	0.13302754
78	0x3dbaae43	0.09115269
79	0x3ee9c0bf	0.45654866
80	0xbc2f52a5	-0.010700856
81	0x3cddaec2	0.02706087
82	0x3e929eb7	0.28636715
83	0x3ec13379	0.37734583
84	0xbd6453d3	-0.055744004
85	0x3e90630d	0.2820057
86	0x3cf455f0	0.029826134
87	0x3ded6b64	0.11592749
88	0xbd113720	-0.035452962
89	0x3de2639f	0.110541575
90	0x3c77c458	0.015122496
91	0x3d8ea361	0.06964756
92	0x3dfccc71	0.123436816
93	0xbf2e22cd	-0.6802185
94	0x3df0de8f	0.117612
95	0x3d8f2c43	0.06990864
96	0x3cfd0d9b	0.030890277
97	0xbe4bf64a	-0.1991817
98	0xbd0daeeb	-0.034590643
99	0xbe314e54	-0.17315036
100	0x3e4997d1	0.1968682
101	0xbe896929	-0.26838043
102	0xbed2274c	-0.41045606
103	0x3e8789ed	0.26472417
104	0x3c86bcfa	0.016447533
105	0x3e52e1ed	0.20593996
106	0xbe7daa0f	-0.24771903
107	0x3d36b0a9	0.04460207
108	0xbda65b22	-0.08122851
109	0xbe420390	-0.18946671
110	0x3cb936cb	0.022609135
111	0x3e607aa7	0.21921788
112	0x3d69c96f	0.057076868
113	0xbe10d18b	-0.14142434
114	0x3ca72f0b	0.020408174
115	0x3e83420b	0.25636324
116	0x3d5b5bd0	0.053554356
117	0xbd98aee4	-0.07455233
118	0x3ddcab41	0.107748516
119	0x3d824773	0.06361284
120	0xbe71600b	-0.23571794
121	0x3e2b00a8	0.16699469
122	0x3c8ef862	0.017452423
123	0x3e3f3c1b	0.18675272
124	0xbe50b792	-0.20382527
125	0xbf515bd3	-0.8178074
126	0x3e50dea1	0.20397426
127	0x3d4cd53a	0.050008036
128	0xbd90ba77	-0.07066815
129	0xbe8a7cee	-0.2704844
130	0xbdef53da	-0.11685915
131	0xbdfe5087	-0.12417703
132	0x3edc1cd3	0.4299074
133	0xbed49a17	-0.4152381
134	0x3d72525a	0.059160568
135	0x3e9c0ffa	0.3048094
136	0xbdcb235c	-0.09918854
137	0x3da99b34	0.08281556
138	0xbeb0f5f4	-0.34562647
139	0xbc06bcb4	-0.008223701
140	0xbe233faa	-0.15942255
141	0xbf01d875	-0.5072091
142	0xbe0028c0	-0.12515545
143	0x3d1cd31f	0.03828728
144	0x3ddfe6e5	0.109327115
145	0xbd3d7755	-0.046256382
146	0xbd9d9774	-0.07694903
147	0x3d86867a	0.06568618
148	0x3ea3087d	0.31842414
149	0x3cbf417c	0.023346655
150	0xbd827a7e	-0.0637102
151	0xbd8d548f	-0.06900894
152	0xbe1ffd46	-0.1562396
153	0x3dc91564	0.09818533
154	0xbe54f0f1	-0.20795037
155	0xbe030fd7	-0.12799011
156	0xbdd54e2e	-0.10415302
157	0xbf652a89	-0.8951803
158	0x3c5c647f	0.0134516945
159	0x3e3de2ad	0.18543501
160	0xbdada52a	-0.08478768
161	0xbeff7a7b	-0.49898133
162	0xbe60aaff	-0.2194023
163	0xbe4a6a35	-0.19767077
164	0x3ead95fe	0.33903497
165	0xbf468b9c	-0.77556777
166	0xbdf9a23a	-0.121891454
167	0x3e73aec8	0.23797143
168	0x3e79bef9	0.24389257
169	0xbc95f962	-0.018307392
170	0xbf161ab9	-0.58634526
171	0xbc573c8d	-0.013136995
172	0xbe679a5a	-0.22617474
173	0xbf57e785	-0.84337646
174	0x3b7d0540	0.0038607866
175	0xbe60b30a	-0.21943298
176	0x3e6b80b0	0.22998309
177	0xbe802ace	-0.25032657
178	0xbe13e7b8	-0.14443862
179	0xbcc6a588	-0.024248853
180	0x3e904248	0.2817557
181	0x3e5a8b1e	0.21342131
182	0xbe079e92	-0.13244084
183	0xbe91c07f	-0.28467175
184	0xbe424e79	-0.18975247
185	0xbd2d6bef	-0.04233926
186	0xbe8646d4	-0.26225913
187	0xbd8588b5	-0.065202154
188	0xbe07fbf6	-0.13279709
189	0xbf082e6b	-0.5319583
190	0xbdb4c6c0	-0.08826971
191	0xbd82f91f	-0.06395172
192	0xbe845fe4	-0.2585441
193	0xbebffc89	-0.37497357
194	0xbe5490d3	-0.20758371
195	0x3e214be0	0.157516
196	0x3e2450fa	0.16046515
197	0xbf4ee940	-0.8082466
198	0xbe567db5	-0.20946391
199	0x3cd64b4b	0.02615895
200	0x3eeea39a	0.46609193
201	0xbe515a40	-0.20444584
202	0xbf1e7bd4	-0.61907697
203	0x3da4f922	0.08055331
204	0xbec51ae3	-0.38497075
205	0xbf9cab7d	-1.2239834
206	0xbe131bd4	-0.14366084
207	0xbe7fb555	-0.24971516
208	0x3df46d7d	0.11934946
209	0xbe10dfff	-0.14147948
210	0xbe4275eb	-0.18990295
211	0xbe09784e	-0.13424799
212	0xbe925fa0	-0.2858858
213	0xbe87903e	-0.26477236
214	0xbde1939a	-0.11014481
215	0xbed05fd2	-0.40698105
216	0xbe255841	-0.16146947
217	0x3ca4f53c	0.020136468
218	0xbe227fd0	-0.15869069
219	0x3c6e9eea	0.014564255
220	0xbe9a4629	-0.30131653
221	0xbebb9204	-0.3663484
222	0xbda300b8	-0.079591215
223	0x3d61d737	0.055136885
224	0xbe1d8257	-0.15381752
225	0xbe886c01	-0.266449
226	0xbdb77698	-0.08958167
227	0x3d5cfd87	0.05395272
228	0x3b87f39c	0.0041489135
229	0xbef83e36	-0.48484963
230	0x3dcf86af	0.10133111
231	0xbdfb5ee4	-0.12273958
232	0x3e89d994	0.2692381
233	0xbd3d8074	-0.04626508
234	0xbea30905	-0.3184282
235	0x3c85852f	0.016298858
236	0xbe8d4dde	-0.2759847
237	0xbf808d40	-1.0043106
238	0xbdb4095e	-0.08790849
239	0xbeb0ef53	-0.3455759
240	0xbddced70	-0.10787475
241	0xbe235032	-0.15948561
242	0xbdc8e736	-0.09809725
243	0xbcdd5e74	-0.027022578
244	0x3e2a05fd	0.16603847
245	0xbdbd8d99	-0.09255523
246	0xbe2e4aa9	-0.17020668
247	0xbec4210c	-0.38306463
248	0xbe187d92	-0.14891651
249	0xbdf289db	-0.118427
250	0xbe2c352d	-0.1681716
251	0xbe221c50	-0.15831113
252	0xbdf72710	-0.120679975
253	0xbe1a69ad	-0.15079375
254	0x3d1c54d7	0.038166847
255	0x3d104b17	0.03522786

sequential/dense_1/MatMul f4 [6, 32]
0	0x3f904ffd	1.127441
1	0xbfb6a6af	-1.4269618
2	0xbf6c1093	-0.9221279
3	0xbf8eff2f	-1.1171626
4	0xbe109415	-0.14118989
5	0x3e7501d8	0.23926485
6	0x3ea2c3d4	0.3179003
7	0x3e96e2cf	0.29469916
8	0xbfaf96e1	-1.371792
9	0xbe095f6d	-0.13415308
10	0x3ed41669	0.41423348
11	0x3eaa8015	0.33300844
12	0x3e418b34	0.18900758
13	0xbecb3bc0	-0.39694023
14	0xbf1d3e60	-0.614233
15	0x3dfb7fa9	0.122802086
16	0xbea5b5af	-0.32365176
17	0xbed64e71	-0.4185672
18	0x3f52f0f9	0.82398945
19	0x3f4ee1ca	0.80813277
20	0xbf9a79e6	-1.206845
21	0x3e4bc633	0.19899826
22	0xbf1a9148	-0.6037793
23	0xbf7b1f93	-0.98095053
24	0xbf930069	-1.14845
25	0x3e0a64d7	0.1351503
26	0x3e6c2944	0.23062617
27	0x3f533d0c	0.82515025
28	0x3e7949d4	0.2434457
29	0x3f40f985	0.75380737
30	0x3e04371c	0.12911648
31	0xbf3eade0	-0.7448406
32	0xbf4347b7	-0.76281303
33	0x3e7b13c3	0.24519257
34	0xbe8b3f4d	-0.27196732
35	0xbe915150	-0.2838235
36	0xbf91b357	-1.1382855
37	0xbeb1e2ed	-0.34743443
38	0xbdf843f5	-0.12122337
39	0xbe3a17b2	-0.18173102
40	0x3e938cbc	0.2881831
41	0xbe929e64	-0.28636467
42	0xbe8d4969	-0.2759507
43	0x3f135e91	0.5756617
44	0x3ec51d64	0.38498986
45	0xbe796b4f	-0.24357341
46	0xbdf567b1	-0.11982668
47	0x3e8502f6	0.25978822
48	0x3f60c792	0.8780452
49	0x3e5d44f8	0.2160834
50	0xbf589396	-0.846002
51	0x3e53085f	0.20608662
52	0xbe586ecc	-0.21136016
53	0xbbda6a8e	-0.0066655343
54	0xbe8508ca	-0.25983268
55	0x3f6380a0	0.8886814
56	0x3ed78b85	0.42098632
57	0xbf2c5ed7	-0.67332214
58	0x3df610a5	0.120148934
59	0xbf1a130f	-0.6018533
60	0x3ed57d55	0.41697183
61	0xbf1674df	-0.5877208
62	0x3e586f98	0.2113632
63	0x3e28cf39	0.16485299
64	0x3e611392	0.21980122
65	0x3ec8613f	0.39136693
66	0x3ec867be	0.3914165
67	0xbe0501ab	-0.12988918
68	0xbf0a507f	-0.5402908
69	0xbfa8f678	-1.3200216
70	0x3ea0cbc4	0.3140546
71	0x3e1e2585	0.15444
72	0xbe98db88	-0.2985499
73	0x3eec159f	0.46110246
74	0xbf88a2b4	-1.0674653
75	0xbe9212c7	-0.2852995
76	0xbf7f79a5	-0.9979499
77	0xbf14fc18	-0.58197165
78	0x3dbe7b4c	0.09300861
79	0x3e46ad6e	0.19402096
80	0xbf7d0d1e	-0.9884814
81	0x3e99011c	0.2988366
82	0xbe820fd4	-0.254027
83	0xbc4bf306	-0.012448078
84	0x3eded079	0.43518427
85	0x3eae1942	0.34003645
86	0x3f0419ab	0.51601666
87	0x3d5c8069	0.0538334
88	0xbef7da54	-0.4840876
89	0xbe46b53b	-0.19405071
90	0xbfa61e14	-1.2977929
91	0x3ebd5f69	0.36986855
92	0x3f740555	0.95320636
93	0xbf6e1de1	-0.9301434
94	0x3d8474b1	0.064675696
95	0x3f168d08	0.58808947
96	0xbe50d432	-0.20393446
97	0xbf8798ed	-1.0593544
98	0x3eed4ee6	0.46349257
99	0x3e0b2890	0.13589692
100	0x3d349462	0.04408682
101	0x3da32eee	0.079679355
102	0xbe47c8b4	-0.19510156
103	0x3ea339ae	0.31879944
104	0x3f0e8029	0.55664307
105	0xbef6ef7d	-0.4822959
106	0xbf0aaa87	-0.54166454
107	0x3df6b744	0.12046674
108	0x3d66bdfa	0.05633352
109	0x3e53b75a	0.20675412
110	0x3ec07b35	0.37594
111	0x3e4e82dc	0.20167106
112	0xbf19a5df	-0.60018724
113	0x3ea6f549	0.32609013
114	0x3dd251df	0.10269522
115	0x3e0a85cb	0.135276
116	0x3e544405	0.20729072
117	0xbd07b6e2	-0.033133395
118	0x3ea12c20	0.31478977
119	0xbf66a4e3	-0.9009535
120	0xbeccce26	-0.4000103
121	0xbde2da89	-0.110768385
122	0x3e9baf57	0.3040721
123	0x3e2dc07a	0.16967955
124	0x3e9f8705	0.311577
125	0x3d780c47	0.060558584
126	0xbe98fc3e	-0.29879946
127	0x3f5c0281	0.8594132
128	0xbef3ebb7	-0.47640774
129	0x3ee088f1	0.43854478
130	0xbdfa2782	-0.12214567
131	0xbd76c975	-0.06025072
132	0x3f23c955	0.63979083
133	0xbd2bc933	-0.041939925
134	0x3df3a2ba	0.11896272
135	0xbf187c5a	-0.59564745
136	0xbe8f0aed	-0.27938023
137	0x3e870291	0.26369146
138	0x3e913402	0.2835999
139	0x3eec34c8	0.4613402
140	0xbeaa8f36	-0.33312386
141	0xbe47c0e3	-0.19507174
142	0x3ebcf5fc	0.3690642
143	0x3ec0c8dc	0.37653244
144	0x3e314674	0.17312032
145	0x3d1f30cd	0.0388649
146	0xbf00aa39	-0.5025974
147	0xbf37166c	-0.7151859
148	0x3c4bb3b8	0.012432985
149	0x3e3a4da0	0.18193674
150	0xbee051b1	-0.43812326
151	0x3f22ff8b	0.6367118
152	0x3ee3db43	0.4450322
153	0x3e453419	0.19258155
154	0x3e52fd06	0.20604333
155	0xbf90c91e	-1.1311376
156	0xbf8048c1	-1.0022203
157	0xbebd3b20	-0.3695917
158	0x3ed46915	0.4148642
159	0xbf4f7fd3	-0.8105442
160	0xbfac650a	-1.3468335
161	0x3ec71087	0.38879797
162	0x3f5332bc	0.8249929
163	0x3f649a11	0.89297587
164	0xbd032400	-0.032016754
165	0x3e29be93	0.16576605
166	0x3e20d11f	0.15704773
167	0x3ea86db5	0.328962
168	0x3e733b31	0.23753048
169	0xbd7bf2c2	-0.06151081
170	0xbd1df526	-0.03856387
171	0xbf906887	-1.1281899
172	0xbcb67d81	-0.022276642
173	0x3f157750	0.5838518
174	0x3cb95506	0.02262355
175	0xbfc5a920	-1.5442238
176	0xbef5221a	-0.4787758
177	0xbf0494c4	-0.517895
178	0x3ea5d333	0.32387695
179	0xbd1bd502	-0.038044937
180	0x3f0ddaa4	0.55411744
181	0x3ec27c58	0.37985492
182	0x3f68af6f	0.9089269
183	0x3eb4b68d	0.35295525
184	0x3f0c5d3a	0.5482975
185	0xbe40ce88	-0.18828785
186	0x3ef95030	0.4869399
187	0xbf20b75e	-0.62779796
188	0x3c10e0e1	0.008842678
189	0xbfcdec88	-1.6087809
190	0xbe18b7aa	-0.14913812
191	0x3ea40489	0.3203471
