TFLite/TrainedModel-FullDataset/tflite_int8_model(FullDataset).tflite (tflite, 26280 bytes, 3 tensors)

sequential/dense_1/MatMul i1 [6, 32] scale=0.04976217 zero_point=0
-0.74643254 -0.19904868 -0.04976217 -0.3483352 0.49762172 -0.14928651 0.24881086 -0.94548124
-0.6469082 0.24881086 -0.09952434 -0.59714603 0.29857302 -0.59714603 0.19904868 -0.09952434
0.24881086 0.44785953 -0.6469082 -0.19904868 0.19904868 -0.49762172 0.29857302 0.29857302
0.24881086 0.24881086 -0.3483352 0.44785953 0.29857302 0.09952434 -0.3483352 0.29857302
-0.19904868 0.19904868 -0.39809737 -0.24881086 -0.39809737 -0.09952434 -0.3483352 -0.74643254
0.29857302 0.39809737 -0.09952434 0.49762172 -0.59714603 0.19904868 -0.59714603 -0.49762172
-0.59714603 -0.44785953 -0.89571905 0.04976217 -0.14928651 0.3483352 -0.49762172 0.39809737
-0.49762172 -0.6469082 0.24881086 -0.19904868 0.14928651 -0.09952434 -0.49762172 -0.39809737
0.3483352 0.5473839 -4.2795467 -0.3483352 0.49762172 -0.19904868 -0.04976217 0.29857302
-0.44785953 -0.3483352 -0.14928651 1.6919138 0.24881086 0.39809737 0.6469082 -1.4928651
-0.3483352 0.49762172 2.4881086 -1.3435786 -4.080498 -0.99524343 0.14928651 1.1445299
-0.6469082 0.5473839 -2.4383464 0.79619473 -2.0900111 0.04976217 0.39809737 0.09952434
-0.24881086 -0.44785953 0.14928651 -0.24881086 -0.24881086 0.19904868 0.29857302 0.24881086
0.14928651 0.04976217 -0.39809737 -1.7914381 -0.29857302 0.0 0.09952434 -0.39809737
0.14928651 -0.3483352 0.5473839 0.29857302 -0.49762172 0.24881086 -0.3483352 0.39809737
0.09952434 -0.59714603 0.14928651 0.29857302 0.0 0.19904868 0.04976217 0.29857302
0.39809737 0.59714603 -0.14928651 -0.24881086 -0.29857302 -0.19904868 0.04976217 -0.5473839
-0.09952434 0.3483352 -0.29857302 -0.19904868 -0.19904868 -0.09952434 0.04976217 0.09952434
-0.29857302 -0.3483352 -0.44785953 0.19904868 0.0 0.19904868 -0.44785953 -0.09952434
-0.24881086 -0.49762172 0.14928651 -0.19904868 0.14928651 -0.24881086 -0.14928651 0.3483352
1.0947678 0.99524343 -2.8364437 0.14928651 -4.9762173 -0.29857302 0.09952434 -2.7369194
-1.7914381 -6.3197956 0.3483352 -4.627882 -0.49762172 -1.8412004 -0.29857302 0.6469082
-0.29857302 -3.6824007 0.8459569 -3.4335897 0.99524343 1.0947678 1.4928651 -3.3340654
0.49762172 -0.59714603 -4.5283575 -2.5378706 0.14928651 -0.14928651 0.89571905 0.14928651
00000000: f1fc fff9 0afd 05ed f305 fef4 06f4 04fe
00000010: 0509 f3fc 04f6 0606 0505 f909 0602 f906
00000020: fc04 f8fb f8fe f9f1 0608 fe0a f404 f4f6
00000030: f4f7 ee01 fd07 f608 f6f3 05fc 03fe f6f8
00000040: 070b aaf9 0afc ff06 f7f9 fd22 0508 0de2
00000050: f90a 32e5 aeec 0317 f30b cf10 d601 0802
00000060: fbf7 03fb fb04 0605 0301 f8dc fa00 02f8
00000070: 03f9 0b06 f605 f908 02f4 0306 0004 0106
00000080: 080c fdfb fafc 01f5 fe07 fafc fcfe 0102
00000090: faf9 f704 0004 f7fe fbf6 03fc 03fb fd07
000000a0: 1614 c703 9cfa 02c9 dc81 07a3 f6db fa0d
000000b0: fab6 11bb 1416 1ebd 0af4 a5cd 03fd 1203

sequential/dense/MatMul i1 [32, 656] scale=0.025409503 zero_point=0
0.20327602 0.0 0.7114661 0.17786652 -0.53359956 -0.17786652 0.48278055 -0.45737106
-0.07622851 -0.050819006 -0.07622851 -0.12704751 -0.050819006 0.45737106 0.07622851 -0.68605655
0.27950454 0.35573304 0.7622851 -0.45737106 0.43196154 -0.27950454 0.50819004 -0.40655205
-0.025409503 -0.12704751 0.0 -0.025409503 -0.53359956 0.17786652 -0.050819006 -0.60982805
0.10163801 0.40655205 0.68605655 -0.38114256 0.48278055 -0.15245701 0.33032355 -0.33032355
0.30491403 -0.33032355 0.0 -0.17786652 -0.43196154 0.20327602 0.0 -0.6352376
0.10163801 0.40655205 0.6352376 -0.12704751 0.35573304 -0.45737106 0.30491403 -0.43196154
0.22868553 -0.27950454 -0.07622851 -0.25409502 -0.50819004 0.10163801 -0.25409502 -0.38114256
0.10163801 0.30491403 0.6606471 -0.38114256 0.35573304 -0.8131041 0.40655205 -0.33032355
0.27950454 -0.25409502 -0.15245701 -0.33032355 -0.5844186 -0.050819006 -0.30491403 -0.35573304
-0.27950454 0.35573304 0.50819004 -0.38114256 0.27950454 -0.8385136 0.48278055 -0.25409502
0.30491403 -0.22868553 0.025409503 -0.33032355 -0.5844186 -0.30491403 0.10163801 -0.43196154
-0.53359956 0.22868553 0.7622851 0.025409503 0.5590091 -0.60982805 0.050819006 -0.48278055
0.30491403 -0.025409503 0.025409503 -0.40655205 -0.7622851 -0.07622851 -0.17786652 -0.45737106
-0.20327602 0.35573304 0.6606471 -0.10163801 0.7368756 -0.53359956 -0.40655205 -0.53359956
0.10163801 -0.07622851 0.17786652 -0.40655205 -0.5844186 -0.15245701 -0.22868553 -0.30491403
-0.50819004 0.22868553 0.7622851 -0.35573304 0.9147421 -0.53359956 -0.025409503 -0.48278055
0.25409502 -0.10163801 0.17786652 -0.33032355 -0.8893326 -0.33032355 -0.10163801 -0.050819006
-0.38114256 0.050819006 0.7114661 -0.53359956 0.94015163 -0.30491403 0.0 -0.35573304
0.20327602 0.025409503 0.12704751 -0.050819006 -0.9655611 -0.20327602 0.0 -0.17786652
-0.07622851 0.07622851 0.53359956 -0.35573304 0.5844186 -0.35573304 0.15245701 -0.60982805
0.07622851 0.10163801 0.17786652 -0.25409502 -0.8639231 -0.20327602 0.050819006 -0.15245701
-0.20327602 0.17786652 0.7114661 -0.5590091 0.8385136 -0.27950454 0.025409503 -0.6606471
0.10163801 -0.25409502 0.15245701 -0.5844186 -0.8893326 -0.12704751 0.15245701 -0.35573304
-0.22868553 0.025409503 0.7114661 -0.5844186 0.5844186 -0.25409502 0.07622851 -0.50819004
0.0 -0.12704751 0.17786652 -0.40655205 -0.9147421 0.050819006 0.0 -0.40655205
-0.60982805 0.12704751 0.7876946 -0.35573304 0.5590091 -0.43196154 0.17786652 -0.45737106
-0.10163801 -0.10163801 0.20327602 -0.40655205 -0.8131041 0.0 0.12704751 -0.27950454
-0.38114256 0.15245701 0.7368756 -0.48278055 0.5844186 -0.30491403 0.025409503 -0.38114256
-0.10163801 -0.07622851 0.10163801 -0.38114256 -0.8131041 -0.17786652 0.12704751 -0.30491403
-0.40655205 0.025409503 0.7876946 -0.38114256 0.5590091 0.025409503 -0.07622851 -0.43196154
-0.35573304 -0.12704751 0.22868553 -0.20327602 -0.9909706 -0.17786652 0.17786652 -0.22868553
00000000: 0800 1c07 ebf9 13ee fdfe fdfb fe12 03e5
00000010: 0b0e 1eee 11f5 14f0 fffb 00ff eb07 fee8
00000020: 0410 1bf1 13fa 0df3 0cf3 00f9 ef08 00e7
00000030: 0410 19fb 0eee 0cef 09f5 fdf6 ec04 f6f1
00000040: 040c 1af1 0ee0 10f3 0bf6 faf3 e9fe f4f2
00000050: f50e 14f1 0bdf 13f6 0cf7 01f3 e9f4 04ef
00000060: eb09 1e01 16e8 02ed 0cff 01f0 e2fd f9ee
00000070: f80e 1afc 1deb f0eb 04fd 07f0 e9fa f7f4
00000080: ec09 1ef2 24eb ffed 0afc 07f3 ddf3 fcfe
00000090: f102 1ceb 25f4 00f2 0801 05fe daf8 00f9
000000a0: fd03 15f2 17f2 06e8 0304 07f6 def8 02fa
000000b0: f807 1cea 21f5 01e6 04f6 06e9 ddfb 06f2
000000c0: f701 1ce9 17f6 03ec 00fb 07f0 dc02 00f0
000000d0: e805 1ff2 16ef 07ee fcfc 08f0 e000 05f5
000000e0: f106 1ded 17f4 01f1 fcfd 04f1 e0f9 05f4
000000f0: f001 1ff1 1601 fdef f2fb 09f8 d9f9 07f7

sequential/conv2d/Conv2D i1 [16, 3, 3, 1]
-82 -74 -65 21 -115 7 -1 127
8 -102 -100 -127 19 26 -7 -108
-127 -32 -31 -101 -93 19 -19 -84
35 -111 -127 -113 -94 -39 -85 13
-56 127 45 88 70 0 -127 27
-15 61 -66 -33 90 110 -6 -33
-13 -30 3 -39 80 -127 40 6
56 -85 14 64 75 5 -127 50
-4 -101 2 14 -50 12 -30 -127
16 30 -42 -44 47 -5 -127 72
92 -119 6 -66 0 -27 33 -127
2 -46 -15 -99 -127 -1 13 -82
-78 -67 21 7 30 -120 -43 -16
-79 -29 -4 -127 103 -49 -127 18
-33 120 94 -13 -48 100 123 112
-14 -8 1 127 120 98 -24 6
58 -127 35 5 117 -9 50 23
-127 -119 -2 -89 6 74 90 17
00000000: aeb6 bf15 8d07 ff7f 089a 9c81 131a f994
00000010: 81e0 e19b a313 edac 2391 818f a2d9 ab0d
00000020: c87f 2d58 4600 811b f13d bedf 5a6e fadf
00000030: f3e2 03d9 5081 2806 38ab 0e40 4b05 8132
00000040: fc9b 020e ce0c e281 101e d6d4 2ffb 8148
00000050: 5c89 06be 00e5 2181 02d2 f19d 81ff 0dae
00000060: b2bd 1507 1e88 d5f0 b1e3 fc81 67cf 8112
00000070: df78 5ef3 d064 7b70 f2f8 017f 7862 e806
00000080: 3a81 2305 75f7 3217 8189 fea7 064a 5a11
