TFLite/xxd-1.11_win32(static)/xxd-1.11_win32/tflite_int8_model(Flatten_Try).tflite (tflite, 131784 bytes, 3 tensors)

sequential_5/dense_11/MatMul i1 [6, 32] scale=0.023052238 zero_point=0
0	0x05	0.11526119
1	0xf7	-0.20747015
2	0xfd	-0.069156714
3	0xdf	-0.7607238
4	0xfa	-0.13831343
5	0x06	0.13831343
6	0xf4	-0.27662686
7	0x0f	0.34578356
8	0x09	0.20747015
9	0x06	0.13831343
10	0x08	0.1844179
11	0x01	0.023052238
12	0xf4	-0.27662686
13	0x0b	0.2535746
14	0x0e	0.32273132
15	0x01	0.023052238
16	0x0a	0.23052238
17	0xf3	-0.2996791
18	0xf2	-0.32273132
19	0xfe	-0.046104476
20	0x02	0.046104476
21	0x01	0.023052238
22	0x0c	0.27662686
23	0x01	0.023052238
24	0xcd	-1.1756642
25	0x10	0.3688358
26	0x0b	0.2535746
27	0xda	-0.875985
28	0x07	0.16136566
29	0x05	0.11526119
30	0xde	-0.7837761
31	0xf7	-0.20747015
32	0xf2	-0.32273132
33	0xe4	-0.64546263
34	0xfd	-0.069156714
35	0x08	0.1844179
36	0xf5	-0.2535746
37	0x09	0.20747015
38	0xfa	-0.13831343
39	0xfb	-0.11526119
40	0x08	0.1844179
41	0xf4	-0.27662686
42	0x05	0.11526119
43	0xf6	-0.23052238
44	0xf8	-0.1844179
45	0xfd	-0.069156714
46	0xdf	-0.7607238
47	0x0e	0.32273132
48	0x09	0.20747015
49	0xfe	-0.046104476
50	0x01	0.023052238
51	0xf6	-0.23052238
52	0x11	0.39188805
53	0xf3	-0.2996791
54	0x06	0.13831343
55	0x09	0.20747015
56	0x27	0.8990373
57	0x0d	0.2996791
58	0x0d	0.2996791
59	0xe1	-0.7146194
60	0xe8	-0.5532537
61	0xfe	-0.046104476
62	0xf5	-0.2535746
63	0x15	0.484097
64	0xd5	-0.9912462
65	0x10	0.3688358
66	0x08	0.1844179
67	0xee	-0.4149403
68	0xfd	-0.069156714
69	0xf7	-0.20747015
70	0xfc	-0.09220895
71	0xfc	-0.09220895
72	0xde	-0.7837761
73	0x17	0.5302015
74	0x06	0.13831343
75	0xf5	-0.2535746
76	0x02	0.046104476
77	0xfa	-0.13831343
78	0x0d	0.2996791
79	0xfa	-0.13831343
80	0xf1	-0.34578356
81	0xf2	-0.32273132
82	0x10	0.3688358
83	0xc9	-1.267873
84	0xc4	-1.3831342
85	0x0d	0.2996791
86	0xb3	-1.7750223
87	0xcc	-1.1987164
88	0x12	0.4149403
89	0x81	-2.9276342
90	0xf6	-0.23052238
91	0xff	-0.023052238
92	0x1c	0.64546263
93	0xef	-0.39188805
94	0x22	0.7837761
95	0xf7	-0.20747015
96	0x19	0.5763059
97	0xf0	-0.3688358
98	0x05	0.11526119
99	0x0d	0.2996791
100	0x0a	0.23052238
101	0xf8	-0.1844179
102	0x0d	0.2996791
103	0xfc	-0.09220895
104	0xdd	-0.8068283
105	0xf1	-0.34578356
106	0x0a	0.23052238
107	0xf3	-0.2996791
108	0x08	0.1844179
109	0xf7	-0.20747015
110	0x08	0.1844179
111	0xff	-0.023052238
112	0x00	0.0
113	0xfb	-0.11526119
114	0xf8	-0.1844179
115	0x0d	0.2996791
116	0x0d	0.2996791
117	0xf9	-0.16136566
118	0x05	0.11526119
119	0x04	0.09220895
120	0xfc	-0.09220895
121	0xf2	-0.32273132
122	0x08	0.1844179
123	0x06	0.13831343
124	0xfd	-0.069156714
125	0x00	0.0
126	0x0c	0.27662686
127	0xfa	-0.13831343
128	0xe6	-0.5993582
129	0x0c	0.27662686
130	0x03	0.069156714
131	0xf4	-0.27662686
132	0xfb	-0.11526119
133	0xf9	-0.16136566
134	0x10	0.3688358
135	0xf4	-0.27662686
136	0xe6	-0.5993582
137	0x0b	0.2535746
138	0x05	0.11526119
139	0x06	0.13831343
140	0x05	0.11526119
141	0x02	0.046104476
142	0xfc	-0.09220895
143	0x0a	0.23052238
144	0x11	0.39188805
145	0x05	0.11526119
146	0x0f	0.34578356
147	0xff	-0.023052238
148	0x06	0.13831343
149	0x05	0.11526119
150	0x10	0.3688358
151	0xfd	-0.069156714
152	0x0f	0.34578356
153	0xf8	-0.1844179
154	0xef	-0.39188805
155	0x08	0.1844179
156	0x04	0.09220895
157	0x00	0.0
158	0xdf	-0.7607238
159	0x12	0.4149403
160	0x19	0.5763059
161	0xfc	-0.09220895
162	0xfa	-0.13831343
163	0x21	0.7607238
164	0xf8	-0.1844179
165	0xf7	-0.20747015
166	0xfe	-0.046104476
167	0x08	0.1844179
168	0xfc	-0.09220895
169	0xf5	-0.2535746
170	0xf6	-0.23052238
171	0xfb	-0.11526119
172	0xfd	-0.069156714
173	0x06	0.13831343
174	0x08	0.1844179
175	0x0a	0.23052238
176	0x01	0.023052238
177	0x0d	0.2996791
178	0xf5	-0.2535746
179	0x16	0.5071492
180	0xcf	-1.1295596
181	0x00	0.0
182	0xda	-0.875985
183	0xe5	-0.6224104
184	0xfb	-0.11526119
185	0x0f	0.34578356
186	0xfb	-0.11526119
187	0x24	0.8298806
188	0xc2	-1.4292388
189	0x0b	0.2535746
190	0x27	0.8990373
191	0xf8	-0.1844179

sequential_5/dense_10/MatMul i1 [32, 3936] scale=0.0061666933 zero_point=0
0	0x15	0.12950055
1	0x01	0.0061666933
2	0x24	0.22200096
3	0xc1	-0.38850167
4	0xfa	-0.03700016
5	0x16	0.13566725
6	0x05	0.030833466
7	0x1c	0.17266741
8	0xfb	-0.030833466
9	0x11	0.10483379
10	0xd0	-0.2960013
11	0xee	-0.11100048
12	0xfe	-0.012333387
13	0x15	0.12950055
14	0xf2	-0.08633371
15	0xf2	-0.08633371
16	0xf1	-0.092500396
17	0x03	0.01850008
18	0x09	0.05550024
19	0xf3	-0.08016701
20	0x13	0.117167175
21	0x07	0.043166853
22	0x41	0.40083507
23	0x18	0.14800064
24	0x04	0.024666773
25	0x21	0.20350088
26	0x06	0.03700016
27	0xe3	-0.17883411
28	0x1f	0.19116749
29	0x11	0.10483379
30	0x0a	0.061666932
31	0xff	-0.0061666933
32	0x11	0.10483379
33	0x00	0.0
34	0x1a	0.16033402
35	0xcb	-0.32683474
36	0xf2	-0.08633371
37	0x09	0.05550024
38	0x07	0.043166853
39	0x14	0.123333864
40	0xf3	-0.08016701
41	0x15	0.12950055
42	0xd4	-0.2713345
43	0xf7	-0.05550024
44	0x03	0.01850008
45	0x1a	0.16033402
46	0xfa	-0.03700016
47	0xff	-0.0061666933
48	0xeb	-0.12950055
49	0x04	0.024666773
50	0x09	0.05550024
51	0xf4	-0.07400032
52	0x08	0.049333546
53	0x08	0.049333546
54	0x3c	0.37000158
55	0x0d	0.08016701
56	0x0b	0.067833625
57	0x18	0.14800064
58	0x08	0.049333546
59	0xfc	-0.024666773
60	0x13	0.117167175
61	0x14	0.123333864
62	0x19	0.15416734
63	0xfd	-0.01850008
64	0x0f	0.092500396
65	0xfa	-0.03700016
66	0x16	0.13566725
67	0xcf	-0.30216798
68	0xec	-0.123333864
69	0x04	0.024666773
70	0xfc	-0.024666773
71	0x10	0.09866709
72	0xf5	-0.067833625
73	0x0d	0.08016701
74	0xd1	-0.2898346
75	0x05	0.030833466
76	0x05	0.030833466
77	0x1e	0.18500079
78	0x01	0.0061666933
79	0x08	0.049333546
80	0xef	-0.10483379
81	0x10	0.09866709
82	0x08	0.049333546
83	0xf6	-0.061666932
84	0x0e	0.08633371
85	0x01	0.0061666933
86	0x4b	0.462502
87	0x06	0.03700016
88	0x04	0.024666773
89	0x11	0.10483379
90	0x00	0.0
91	0xf6	-0.061666932
92	0x0e	0.08633371
93	0x1c	0.17266741
94	0x18	0.14800064
95	0x01	0.0061666933
96	0x08	0.049333546
97	0xfe	-0.012333387
98	0x11	0.10483379
99	0xca	-0.33300143
100	0xeb	-0.12950055
101	0x10	0.09866709
102	0x00	0.0
103	0x11	0.10483379
104	0xeb	-0.12950055
105	0x11	0.10483379
106	0xcf	-0.30216798
107	0xfb	-0.030833466
108	0xfb	-0.030833466
109	0x19	0.15416734
110	0x01	0.0061666933
111	0x08	0.049333546
112	0xe7	-0.15416734
113	0x0c	0.07400032
114	0x09	0.05550024
115	0xf0	-0.09866709
116	0x08	0.049333546
117	0xfd	-0.01850008
118	0x4c	0.4686687
119	0x0c	0.07400032
120	0x05	0.030833466
121	0x18	0.14800064
122	0x0c	0.07400032
123	0x01	0.0061666933
124	0x0f	0.092500396
125	0x15	0.12950055
126	0x20	0.19733419
127	0xf7	-0.05550024
128	0x0e	0.08633371
129	0xfd	-0.01850008
130	0x13	0.117167175
131	0xc9	-0.33916813
132	0xe7	-0.15416734
133	0x11	0.10483379
134	0xfc	-0.024666773
135	0x0a	0.061666932
136	0xeb	-0.12950055
137	0x0c	0.07400032
138	0xcf	-0.30216798
139	0xfd	-0.01850008
140	0x05	0.030833466
141	0x11	0.10483379
142	0xf6	-0.061666932
143	0xfa	-0.03700016
144	0xea	-0.13566725
145	0x05	0.030833466
146	0x04	0.024666773
147	0xf1	-0.092500396
148	0x0b	0.067833625
149	0xf9	-0.043166853
150	0x42	0.40700176
151	0x0d	0.08016701
152	0x0e	0.08633371
153	0x0e	0.08633371
154	0x04	0.024666773
155	0x00	0.0
156	0x0e	0.08633371
157	0x0d	0.08016701
158	0x1a	0.16033402
159	0xfe	-0.012333387
160	0x0b	0.067833625
161	0xfd	-0.01850008
162	0x18	0.14800064
163	0xc6	-0.35766822
164	0xef	-0.10483379
165	0x09	0.05550024
166	0x00	0.0
167	0x0a	0.061666932
168	0xf2	-0.08633371
169	0x03	0.01850008
170	0xdd	-0.21583426
171	0xf9	-0.043166853
172	0xf9	-0.043166853
173	0x14	0.123333864
174	0xff	-0.0061666933
175	0xff	-0.0061666933
176	0xf1	-0.092500396
177	0x07	0.043166853
178	0x03	0.01850008
179	0xee	-0.11100048
180	0x13	0.117167175
181	0xfd	-0.01850008
182	0x41	0.40083507
183	0x08	0.049333546
184	0x07	0.043166853
185	0x18	0.14800064
186	0x05	0.030833466
187	0xf9	-0.043166853
188	0x0f	0.092500396
189	0x15	0.12950055
190	0x11	0.10483379
191	0xf6	-0.061666932
192	0x0b	0.067833625
193	0xfa	-0.03700016
194	0x0f	0.092500396
195	0xc7	-0.35150152
196	0xef	-0.10483379
197	0x09	0.05550024
198	0x01	0.0061666933
199	0x0e	0.08633371
200	0xec	-0.123333864
201	0x0c	0.07400032
202	0xdd	-0.21583426
203	0xfd	-0.01850008
204	0xfd	-0.01850008
205	0x19	0.15416734
206	0xf9	-0.043166853
207	0xfe	-0.012333387
208	0xe8	-0.14800064
209	0x12	0.11100048
210	0x0c	0.07400032
211	0xea	-0.13566725
212	0x0e	0.08633371
213	0xf6	-0.061666932
214	0x41	0.40083507
215	0x05	0.030833466
216	0x08	0.049333546
217	0x18	0.14800064
218	0x08	0.049333546
219	0xff	-0.0061666933
220	0x0b	0.067833625
221	0x0f	0.092500396
222	0x10	0.09866709
223	0xf6	-0.061666932
224	0x0c	0.07400032
225	0xfd	-0.01850008
226	0x15	0.12950055
227	0xc9	-0.33916813
228	0xe4	-0.17266741
229	0x11	0.10483379
230	0x03	0.01850008
231	0x0c	0.07400032
232	0xea	-0.13566725
233	0x08	0.049333546
234	0xe7	-0.15416734
235	0xfa	-0.03700016
236	0x04	0.024666773
237	0x15	0.12950055
238	0x02	0.012333387
239	0xfc	-0.024666773
240	0xea	-0.13566725
241	0x0c	0.07400032
242	0x03	0.01850008
243	0xee	-0.11100048
244	0x05	0.030833466
245	0xf5	-0.067833625
246	0x42	0.40700176
247	0x0e	0.08633371
248	0x08	0.049333546
249	0x11	0.10483379
250	0x07	0.043166853
251	0xfd	-0.01850008
252	0x0f	0.092500396
253	0x1a	0.16033402
254	0x0c	0.07400032
255	0xf6	-0.061666932

sequential_5/conv2d_5/Conv2D i1 [32, 3, 1, 1]
0	0x69	105
1	0xfe	-2
2	0x7f	127
3	0x7f	127
4	0x8e	-114
5	0x1a	26
6	0x7f	127
7	0x2b	43
8	0x55	85
9	0x81	-127
10	0xc8	-56
11	0x8c	-116
12	0x35	53
13	0x62	98
14	0x81	-127
15	0x0c	12
16	0x41	65
17	0x7f	127
18	0x7f	127
19	0xda	-38
20	0x26	38
21	0x7f	127
22	0xe7	-25
23	0x6c	108
24	0x6b	107
25	0x2c	44
26	0x81	-127
27	0xd4	-44
28	0x69	105
29	0x81	-127
30	0x88	-120
31	0xc6	-58
32	0x81	-127
33	0xc6	-58
34	0xb2	-78
35	0x7f	127
36	0xd9	-39
37	0x81	-127
38	0xd3	-45
39	0x91	-111
40	0xff	-1
41	0x81	-127
42	0x81	-127
43	0x0e	14
44	0x69	105
45	0xc4	-60
46	0xb1	-79
47	0x7f	127
48	0x7f	127
49	0xd8	-40
50	0xbc	-68
51	0x81	-127
52	0xe5	-27
53	0x7a	122
54	0xff	-1
55	0x7f	127
56	0x5f	95
57	0x7f	127
58	0xe3	-29
59	0xb0	-80
60	0x6e	110
61	0x0b	11
62	0x7f	127
63	0x57	87
64	0x31	49
65	0x81	-127
66	0x81	-127
67	0x17	23
68	0x32	50
69	0x7f	127
70	0xbd	-67
71	0x7e	126
72	0xf4	-12
73	0x7f	127
74	0xf5	-11
75	0x7f	127
76	0xd0	-48
77	0x6d	109
78	0xf9	-7
79	0x7f	127
80	0x78	120
81	0x81	-127
82	0x48	72
83	0x3b	59
84	0x7f	127
85	0x21	33
86	0x4a	74
87	0xfe	-2
88	0x81	-127
89	0x53	83
90	0x81	-127
91	0x7c	124
92	0xd8	-40
93	0x7f	127
94	0x23	35
95	0x18	24
