TFLite/xxd-1.11_win32(static)/xxd-1.11_win32/tflite_fp16_model.tflite (tflite, 257508 bytes, 6 tensors)

sequential_1/conv2d_1/BiasAdd/ReadVariableOp f2 [32]
000000 a6 b0 4c af 21 b5 79 32 f1 b5 d2 a9 58 35 dd a6
       -0.1453 -0.114 -0.3206 0.2023 -0.3713 -0.04547 0.334 -0.02681
000010 26 a9 19 b1 b5 34 cd 31 e7 b1 ef a8 d6 a7 21 2f
       -0.04022 -0.1593 0.2942 0.1813 -0.1844 -0.03854 -0.03061 0.1114
000020 2c ae bf a6 b8 b5 98 b5 95 af c8 b5 a9 a3 46 30
       -0.09644 -0.02635 -0.3574 -0.3496 -0.11847 -0.3613 -0.01496 0.1335
000030 f3 b5 0d a8 d7 ae 2b af 5f b0 53 b0 47 31 20 33
       -0.3718 -0.03165 -0.1069 -0.112 -0.1366 -0.1351 0.1649 0.2227

sequential_1/conv2d_1/Conv2D f2 [32, 3, 1, 1]
000000 5c 34 37 b7 d6 b8 bd 34 29 31 e4 b5 c9 29 76 30
       0.2725 -0.451 -0.6045 0.2961 0.1613 -0.3682 0.0452 0.1394
000010 31 2e 13 b3 7e 28 32 b5 1c 34 01 31 c4 2b 98 b2
       0.09674 -0.2211 0.0351 -0.3247 0.2568 0.1564 0.06067 -0.206
000020 cf 1e 41 32 bc 2b 3b a0 fb ae 4a b4 0f b2 f4 36
       0.00665 0.1954 0.06042 -0.00826 -0.1091 -0.268 -0.1893 0.4346
000030 74 b6 8d 32 f6 31 37 b6 e2 31 7d 34 38 2c 8b 29
       -0.4033 0.2047 0.1863 -0.3884 0.1838 0.2805 0.0659 0.0433
000040 f2 b1 42 b0 f4 a2 0a b1 bb 28 b3 b5 cc b8 26 30
       -0.1858 -0.133 -0.01358 -0.1575 0.03696 -0.3562 -0.5996 0.1296
000050 ae 29 52 29 a1 b4 03 ad e1 35 5f b6 02 b7 ae b6
       0.04437 0.04156 -0.2893 -0.0783 0.3674 -0.3982 -0.438 -0.4175
000060 52 35 8d af b1 b0 a6 b2 75 b0 2c 35 16 31 bc 32
       0.3325 -0.118 -0.1466 -0.2078 -0.1393 0.3232 0.1589 0.2104
000070 2e 26 af 34 15 b0 d6 34 28 36 6c a8 27 b4 d7 a0
       0.02414 0.2927 -0.1276 0.3022 0.3848 -0.03455 -0.2595 -0.00945
000080 45 34 ee 27 25 b6 e7 b0 d7 34 a9 ad 81 a3 7c b1
       0.2668 0.03098 -0.384 -0.1532 0.3025 -0.08844 -0.014656 -0.1714
000090 59 34 d8 2c 09 31 92 b1 c4 b2 22 36 25 34 12 32
       0.2717 0.0757 0.1573 -0.1741 -0.2114 0.3833 0.259 0.1897
0000a0 fb 2e ce 34 2a 2e fc b4 5b b8 79 b2 b9 b4 44 a4
       0.1091 0.3003 0.0963 -0.3115 -0.5444 -0.2023 -0.2952 -0.01666
0000b0 dc 35 a4 b4 fc b5 dc ae 4e b6 8d b3 ec 28 74 b5
       0.3662 -0.29 -0.374 -0.1072 -0.394 -0.236 0.03845 -0.3408

sequential_1/dense_3/BiasAdd/ReadVariableOp f2 [6]
000000 e0 b1 35 b4 74 2c ea 2e bf 2c 2a b5
       -0.1836 -0.263 0.0696 0.10803 0.07416 -0.3228

sequential_1/dense_2/BiasAdd/ReadVariableOp f2 [32]
000000 63 ac 26 9e 0e 32 79 9d a2 2a ee ad 9f 35 94 a1
       -0.06854 -0.006004 0.1892 -0.005344 0.05182 -0.09265 0.3513 -0.010895
000010 78 1e 08 9d 26 9e 2f 36 54 33 31 25 26 9e 26 9e
       0.006317 -0.004913 -0.006004 0.3865 0.229 0.02028 -0.006004 -0.006004
000020 ef 98 c5 9d d6 9d d5 a6 ad ad 5a 2c 6e 9e ea 31
       -0.002409 -0.005634 -0.0057 -0.02669 -0.0887 0.068 -0.00628 0.1848
000030 3d 34 79 9d a7 a5 30 30 1c a1 b1 99 1f 2e ba 9e
       0.265 -0.005344 -0.02208 0.1309 -0.00998 -0.002779 0.09564 -0.00657

sequential_1/dense_2/MatMul f2 [32, 3936]
000000 a4 af e8 a8 9d a4 44 32 6c ae 2b ac 10 ac f3 1e
       -0.1194 -0.03833 -0.01802 0.1958 -0.10034 -0.0651 -0.0635 0.006786
000010 8d ac aa 1a 82 ac 67 30 51 a6 e8 2d a3 a8 28 2c
       -0.0711 0.003254 -0.07043 0.1376 -0.02467 0.0923 -0.03622 0.06494
000020 cb a8 f4 a5 91 ad 4a ae c1 24 68 ab f7 b4 b9 30
       -0.03745 -0.02325 -0.087 -0.09827 0.01857 -0.05786 -0.3103 0.1476
000030 e2 b0 6d a7 54 30 28 9e 98 ac 13 a0 00 32 02 33
       -0.1526 -0.029 0.1353 -0.006012 -0.0718 -0.00796 0.1875 0.219
000040 f9 ae 93 2a 6a 26 30 2f 00 ac 6d ab cf a4 7d aa
       -0.10895 0.05136 0.02505 0.1123 -0.0625 -0.058 -0.01878 -0.0507
000050 d4 a9 1e 22 92 ad d6 29 0e a7 7b 2f aa a8 28 2c
       -0.04553 0.01195 -0.08704 0.0456 -0.02756 0.1169 -0.03644 0.06494
000060 64 aa 8e ad 0d 1b a9 ad 5e 9e 09 a4 18 b4 1c 2f
       -0.04993 -0.0868 0.003443 -0.08844 -0.006218 -0.01576 -0.2559 0.1111
000070 2f ac 68 a8 84 32 b9 2a 2b 28 2d 2a 32 2f 3a 2e
       -0.06537 -0.03442 0.2036 0.05252 0.03256 0.04825 0.1124 0.0973
000080 20 b3 b4 2c ad a7 7a 31 3e a1 81 ae 17 ab 05 ab
       -0.2227 0.0735 -0.02998 0.1711 -0.01024 -0.1016 -0.0554 -0.05484
000090 c4 a7 5b 29 de a1 35 2a ff ad 1e 31 df a9 5b 2c
       -0.03033 0.04184 -0.01146 0.0485 -0.0937 0.1599 -0.04587 0.06805
0000a0 28 2e 09 a6 fb a2 84 ad f6 2e 21 a8 59 b4 8d 2f
       0.0962 -0.02357 -0.01363 -0.0862 0.10876 -0.03226 -0.2717 0.118
0000b0 5a a8 7c a8 46 33 7a 30 b1 99 50 2d ae 2e 7f 31
       -0.034 -0.03503 0.2273 0.1399 -0.002779 0.083 0.1044 0.1718
0000c0 3a b3 0d 30 62 a7 93 2f 39 ac e4 af 7c 20 19 ae
       -0.2258 0.1266 -0.02884 0.11835 -0.066 -0.1233 0.00876 -0.0953
0000d0 25 ad f8 a8 28 23 e5 2c 03 ae 53 31 76 af 10 2c
       -0.0804 -0.03882 0.01398 0.0765 -0.09393 0.1664 -0.1166 0.0635
0000e0 05 2d 2b ac 4e a6 77 ac 32 2d 0e ac ce b4 79 29
       0.0784 -0.0651 -0.02463 -0.06976 0.0812 -0.06335 -0.3003 0.04276
0000f0 9c a9 0c ae 7b 31 07 31 38 a0 27 20 00 30 d3 2e
       -0.04382 -0.0945 0.1713 0.1571 -0.00824 0.00811 0.125 0.1066
000100 c7 ae fb 2d 34 a6 c9 30 21 ae cc a8 5a 26 17 ab
       -0.1059 0.09344 -0.02423 0.1495 -0.09576 -0.03748 0.02481 -0.0554
000110 c8 ab 65 27 58 a8 55 28 14 aa 50 2f 5b ab 5f 99
       -0.0608 0.02888 -0.03394 0.03384 -0.0475 0.11426 -0.05746 -0.002623
000120 8c 2c f9 a7 75 ad e6 af e8 30 9d ae 31 b5 a1 2b
       0.07104 -0.03114 -0.08527 -0.1234 0.1533 -0.10333 -0.3245 0.0596
000130 f5 a5 9d a8 88 32 3c 31 ac a0 b2 a5 56 2e c3 2f
       -0.02327 -0.03604 0.2041 0.1636 -0.009125 -0.02225 0.099 0.1213
000140 33 b0 e2 2a ea ab 9a 30 28 ab db ad 4a ab 7b aa
       -0.1312 0.05377 -0.06183 0.1438 -0.0559 -0.0915 -0.05695 -0.05063
000150 d8 ad 91 a8 2d 1a eb 2d c8 29 c4 2f 38 af 3c 2e
       -0.0913 -0.03568 0.003016 0.09247 0.04517 0.12134 -0.1128 0.0974
000160 40 1c 07 ad 51 aa 7b b0 2e 2f 0f ac d7 b4 21 2f
       0.00415 -0.07855 -0.04935 -0.14 0.1122 -0.0634 -0.3025 0.1114
000170 7e ae 46 ae 85 32 d3 30 2b a9 8f a4 eb 31 d3 31
       -0.10144 -0.098 0.2037 0.1508 -0.04037 -0.0178 0.1849 0.182
000180 b0 af 36 2e 7f aa e4 31 af ad be ab 19 a5 0c a4
       -0.1201 0.09705 -0.05075 0.1841 -0.0888 -0.0605 -0.01991 -0.01581
000190 28 af cc a6 4c a8 b4 2f 0c ac 2a 2e 41 a9 68 2c
       -0.1118 -0.02655 -0.03357 0.12036 -0.06323 0.0963 -0.04105 0.06885
0001a0 ed 2a e9 1d 22 aa 31 ac b3 2d c6 ad 6e b2 59 2e
       0.0541 0.00577 -0.0479 -0.0655 0.08905 -0.0902 -0.2009 0.0992
0001b0 86 ad a1 96 ff 31 48 2f 47 a8 90 2c 7c 30 4a 31
       -0.0863 -0.001618 0.1874 0.1138 -0.03342 0.0713 0.1401 0.1653
0001c0 e8 af 44 30 b2 ad 58 30 83 ac c4 a9 f1 a4 89 ab
       -0.12354 0.1333 -0.089 0.1357 -0.0705 -0.04504 -0.0193 -0.05887
0001d0 a9 a8 d6 26 b2 a7 a3 2b 6c a4 cc 30 b5 ac 02 2b
       -0.0364 0.0267 -0.03006 0.05966 -0.01727 0.1499 -0.07355 0.05475
0001e0 68 2e 6a aa 96 ac 7f b0 ec 2c 3e af 58 b4 ab 2e
       0.1001 -0.0501 -0.07166 -0.1405 0.0769 -0.11316 -0.2715 0.1042
0001f0 2e ae 01 ab 0c 31 e9 2e c5 a4 2f a6 85 30 9d 2f
       -0.09656 -0.05472 0.1577 0.108 -0.01863 -0.02415 0.1412 0.11896

sequential_1/dense_3/MatMul f2 [6, 32]
000000 78 34 85 aa 7c 36 6c 30 a3 35 2b b4 a2 b0 fc b2
       0.2793 -0.05093 0.4053 0.1382 0.3523 -0.2605 -0.1448 -0.2183
000010 89 29 90 34 f4 b2 a9 bc 83 30 c8 38 fc a2 30 af
       0.04324 0.2852 -0.2173 -1.165 0.141 0.5977 -0.01364 -0.1123
000020 ca 1c 1c 32 d3 b4 9f 32 ff 30 52 ba d9 29 eb b9
       0.004677 0.1909 -0.3015 0.2069 0.1561 -0.79 0.0457 -0.7397
000030 92 be 8c 98 1b 2d 26 a8 d4 a8 7c 35 03 28 a3 b5
       -1.643 -0.00222 0.0798 -0.0324 -0.03772 0.3428 0.03134 -0.3523
000040 be b8 ce b4 e5 bb c2 b2 82 aa 0b 35 4a c0 eb a7
       -0.593 -0.3003 -0.987 -0.2112 -0.05084 0.3152 -2.145 -0.03093
000050 a9 34 00 b5 de 34 42 b9 66 33 10 a7 24 35 22 36
       0.2913 -0.3125 0.3042 -0.657 0.2312 -0.02759 0.3213 0.3833
000060 bd 18 62 af 6e ab 1a b8 7c 33 9e a7 f1 b5 5f b8
       0.002314 -0.11536 -0.05804 -0.5127 0.2339 -0.02975 -0.3713 -0.5464
000070 d0 34 8d b4 fc 32 2d bc cb a2 f4 b5 39 b5 da 31
       0.3008 -0.2844 0.2183 -1.044 -0.01327 -0.372 -0.3264 0.1829
000080 7c b0 4f 2f de 38 5f b6 47 b3 80 bc ef 39 06 b5
       -0.1401 0.1142 0.6084 -0.3982 -0.2274 -1.125 0.7417 -0.314
000090 b9 33 37 31 de 30 92 33 9f 30 c8 36 1c 29 b1 23
       0.2413 0.163 0.1521 0.2366 0.1444 0.4238 0.03992 0.01502
0000a0 4c 31 30 2d 92 b3 18 bc ec bd 21 34 5b b4 e9 2f
       0.1655 0.08105 -0.2366 -1.023 -1.48 0.258 -0.2722 0.1236
0000b0 1b b3 5b b5 80 b4 ef 2e 09 36 53 22 90 b8 e2 b2
       -0.222 -0.3347 -0.2812 0.10834 0.3772 0.01235 -0.5703 -0.2151
0000c0 6a ae bf b5 f6 38 ae 19 61 b1 c8 b0 61 b6 b3 b4
       -0.1002 -0.3591 0.62 0.002773 -0.1681 -0.1494 -0.3987 -0.2937
0000d0 a8 2b 3c 2f 39 b5 3b 35 08 34 0c 30 c3 a3 62 b2
       0.0598 0.11304 -0.3264 0.327 0.252 0.1265 -0.01516 -0.1995
0000e0 0d ac 65 32 43 31 0c 31 b2 34 2b bc 6f b4 20 38
       -0.0633 0.1998 0.1644 0.1577 0.2935 -1.042 -0.277 0.5156
0000f0 b4 b4 bb 2a 53 aa d0 35 01 34 e1 b4 0e 30 80 30
       -0.294 0.05258 -0.0494 0.3633 0.2502 -0.305 0.1267 0.1406
000100 67 34 85 b4 99 ba 6e b2 da 36 8e af e1 bd d8 2d
       0.2751 -0.2825 -0.8247 -0.2009 0.4282 -0.11804 -1.47 0.0913
000110 b2 b1 db b4 a6 b0 04 b3 e7 34 75 b8 6b b4 25 1e
       -0.178 -0.3035 -0.1453 -0.2192 0.3064 -0.557 -0.2761 0.006
000120 60 36 4f 33 bf b0 bc b7 6e b3 80 36 cd ad 05 34
       0.3984 0.2284 -0.1483 -0.4834 -0.2322 0.4062 -0.09064 0.2512
000130 a3 34 17 b0 5d b8 9b b7 f9 2c 3c af 2e 30 e0 b1
       0.2898 -0.1278 -0.5454 -0.4753 0.0777 -0.11304 0.1306 -0.1836
000140 39 32 a3 a2 02 b7 d2 2c 23 bb 5b b6 82 b4 35 32
       0.1945 -0.01296 -0.438 0.0753 -0.892 -0.3972 -0.2817 0.194
000150 a1 35 f1 34 86 31 86 af cb b9 75 31 f9 35 1a 2f
       0.3518 0.3088 0.1726 -0.11755 -0.724 0.1705 0.3733 0.11096
000160 6c 37 36 25 76 b3 de 37 eb 33 2c 3c e0 28 91 35
       0.4639 0.02036 -0.2332 0.4917 0.2474 1.043 0.0381 0.348
000170 b4 33 43 b5 60 b9 fc 2d 94 b2 e4 b3 51 b5 0a b5
       0.2407 -0.3289 -0.672 0.0935 -0.2056 -0.2466 -0.3323 -0.315
