TFLite/xxd-1.11_win32(static)/xxd-1.11_win32/tflite_int8_model.tflite (tflite, 132192 bytes, 3 tensors)

sequential_2/dense_5/MatMul i1 [6, 32] scale=0.015858022 zero_point=0
0.19029626 0.06343209 0.36473453 -0.39645055 0.33301848 -0.047574066 0.3488765 -0.55503076
-0.12686418 0.031716045 -0.079290114 0.23787034 0.25372836 -0.15858023 -0.19029626 0.079290114
0.015858022 -0.87219125 -0.031716045 -0.39645055 -2.013969 -0.015858022 -0.33301848 0.39645055
-0.015858022 -0.23787034 -0.23787034 0.45988265 0.09514813 -0.36473453 0.047574066 0.38059253
-0.76118505 -0.31716046 0.17443825 -0.015858022 -0.17443825 0.047574066 -0.19029626 -0.31716046
0.25372836 -0.17443825 0.12686418 -0.38059253 -0.17443825 0.0 0.22201231 0.36473453
0.5867468 -1.1259196 -0.111006156 0.047574066 0.17443825 -0.079290114 -0.079290114 -0.26958638
0.0 -0.1427222 -0.3488765 -0.45988265 -0.12686418 0.111006156 0.079290114 0.15858023
0.20615429 -0.15858023 0.38059253 -0.111006156 0.22201231 -1.4589381 -0.26958638 1.0466294
-0.39645055 -0.39645055 -0.15858023 -0.047574066 0.079290114 0.12686418 -0.015858022 -1.1259196
0.047574066 0.4915987 0.1427222 0.30130243 0.76118505 -0.31716046 0.26958638 -0.09514813
0.031716045 -0.25372836 -0.06343209 -0.7770431 -1.4589381 0.12686418 0.36473453 -0.06343209
-0.047574066 0.19029626 0.19029626 -0.26958638 0.39645055 -0.111006156 -0.15858023 0.76118505
0.09514813 0.22201231 0.31716046 -0.31716046 -0.1427222 -0.15858023 0.19029626 0.38059253
-0.111006156 -0.41230857 0.38059253 0.09514813 -0.36473453 0.031716045 -0.26958638 0.2854444
-0.3488765 0.19029626 0.111006156 0.23787034 0.06343209 0.031716045 0.36473453 -0.26958638
-0.23787034 0.06343209 -0.20615429 -0.38059253 -0.38059253 0.0 0.17443825 -0.9197653
0.1427222 -0.079290114 -0.25372836 -0.33301848 0.12686418 0.015858022 -0.047574066 -0.015858022
-0.713611 -0.031716045 -0.06343209 -0.30130243 0.15858023 -0.19029626 0.1427222 0.2854444
0.15858023 -0.23787034 0.31716046 -0.22201231 0.53917277 -0.33301848 -0.19029626 0.1427222
0.39645055 0.09514813 -0.15858023 0.30130243 0.12686418 -1.8395306 0.38059253 0.30130243
0.1427222 -0.1427222 0.15858023 0.26958638 -1.2527838 0.31716046 -0.23787034 -0.19029626
-0.38059253 0.6343209 0.0 -0.09514813 -0.5074567 0.23787034 -0.26958638 0.079290114
0.09514813 -0.17443825 -0.38059253 0.5867468 0.15858023 -0.36473453 -0.38059253 -0.079290114
00000000: 0c04 17e7 15fd 16dd f802 fb0f 10f6 f405
00000010: 01c9 fee7 81ff eb19 fff1 f11d 06e9 0318
00000020: d0ec 0bff f503 f4ec 10f5 08e8 f500 0e17
00000030: 25b9 f903 0bfb fbef 00f7 eae3 f807 050a
00000040: 0df6 18f9 0ea4 ef42 e7e7 f6fd 0508 ffb9
00000050: 031f 0913 30ec 11fa 02f0 fccf a408 17fc
00000060: fd0c 0cef 19f9 f630 060e 14ec f7f6 0c18
00000070: f9e6 1806 e902 ef12 ea0c 070f 0402 17ef
00000080: f104 f3e8 e800 0bc6 09fb f0eb 0801 fdff
00000090: d3fe fced 0af4 0912 0af1 14f2 22eb f409
000000a0: 1906 f613 088c 1813 09f7 0a11 b114 f1f4
000000b0: e828 00fa e00f ef05 06f5 e825 0ae9 e8fb

sequential_2/dense_4/MatMul i1 [32, 3936] scale=0.005098679 zero_point=0
0.07648019 0.1223683 -0.07648019 -0.3874996 0.081578866 -0.16825642 0.06118415 0.07648019
0.06628283 -0.2192432 0.081578866 -0.20394716 -0.22944055 0.11217094 0.26513132 0.10197358
0.1223683 0.14786169 0.07138151 -0.07138151 0.17845377 0.15805905 -0.11726962 -0.1223683
0.15805905 -0.14786169 -0.33141413 0.27023 0.015296037 0.06118415 0.107072264 0.06628283
0.07138151 0.11726962 -0.12746698 -0.3161181 0.07648019 -0.11726962 0.10197358 0.081578866
-0.005098679 -0.081578866 0.05608547 -0.11217094 -0.11217094 0.05098679 0.28552604 0.10197358
0.18865113 0.10197358 0.06628283 -0.06628283 0.12746698 0.13256566 -0.0968749 -0.035690755
0.09177622 -0.11726962 -0.0968749 0.26003262 0.035690755 0.05098679 0.035690755 0.05608547
0.040789433 0.020394716 -0.14786169 -0.21414453 0.14786169 -0.14786169 0.05608547 0.015296037
0.05098679 -0.13256566 0.035690755 -0.09177622 -0.1223683 0.05608547 0.30592075 0.107072264
0.11217094 0.07648019 0.05098679 -0.11217094 0.09177622 0.035690755 -0.040789433 -0.11217094
0.06118415 -0.15296037 -0.09177622 0.30592075 0.11217094 0.040789433 -0.015296037 0.030592075
0.04588811 -0.010197358 -0.20904584 -0.2447366 0.17845377 -0.0968749 0.13256566 0.025493395
0.035690755 -0.12746698 0.005098679 -0.11217094 -0.16825642 -0.010197358 0.33651283 0.06118415
0.07138151 0.081578866 0.05608547 -0.06628283 0.05608547 0.025493395 -0.06628283 -0.11726962
-0.025493395 -0.12746698 -0.16315773 0.3161181 0.15805905 0.06118415 -0.005098679 0.07138151
0.035690755 0.05098679 -0.22944055 -0.20394716 0.11217094 -0.10197358 0.107072264 0.05098679
0.035690755 -0.14276302 0.0 -0.11217094 -0.09177622 0.010197358 0.29572338 0.12746698
0.05098679 0.04588811 0.081578866 -0.06628283 0.015296037 0.020394716 -0.04588811 -0.04588811
-0.005098679 -0.11726962 -0.081578866 0.36200622 0.10197358 0.05098679 0.05098679 0.06628283
0.081578866 0.015296037 -0.2447366 -0.20394716 0.17845377 -0.107072264 0.086677544 0.010197358
0.030592075 -0.13766433 -0.030592075 -0.05608547 -0.0968749 -0.030592075 0.26003262 0.10197358
0.040789433 0.025493395 0.07648019 -0.04588811 0.0 0.04588811 -0.010197358 -0.086677544
0.030592075 -0.15296037 -0.06628283 0.3212168 0.081578866 0.005098679 0.06628283 0.030592075
0.081578866 0.030592075 -0.25493395 -0.13256566 0.13256566 -0.16315773 0.07138151 0.030592075
0.010197358 -0.11726962 -0.010197358 -0.14786169 -0.13256566 -0.020394716 0.2906247 0.04588811
-0.015296037 0.04588811 0.020394716 -0.13766433 0.025493395 0.005098679 0.07648019 -0.11217094
0.025493395 -0.14276302 -0.14276302 0.32631546 0.11217094 -0.015296037 0.035690755 0.040789433
0.107072264 0.010197358 -0.2447366 -0.16315773 0.1223683 -0.11726962 0.11726962 -0.05098679
0.0 -0.13256566 -0.081578866 -0.13766433 -0.11217094 -0.005098679 0.22944055 0.081578866
-0.025493395 0.035690755 0.025493395 -0.13766433 0.015296037 0.035690755 0.0968749 -0.04588811
0.010197358 -0.18355244 -0.12746698 0.2906247 0.086677544 -0.010197358 0.04588811 0.07648019
00000000: 0f18 f1b4 10df 0c0f 0dd5 10d8 d316 3414
00000010: 181d 0ef2 231f e9e8 1fe3 bf35 030c 150d
00000020: 0e17 e7c2 0fe9 1410 fff0 0bea ea0a 3814
00000030: 2514 0df3 191a edf9 12e9 ed33 070a 070b
00000040: 0804 e3d6 1de3 0b03 0ae6 07ee e80b 3c15
00000050: 160f 0aea 1207 f8ea 0ce2 ee3c 1608 fd06
00000060: 09fe d7d0 23ed 1a05 07e7 01ea dffe 420c
00000070: 0e10 0bf3 0b05 f3e9 fbe7 e03e 1f0c ff0e
00000080: 070a d3d8 16ec 150a 07e4 00ea ee02 3a19
00000090: 0a09 10f3 0304 f7f7 ffe9 f047 140a 0a0d
000000a0: 1003 d0d8 23eb 1102 06e5 faf5 edfa 3314
000000b0: 0805 0ff7 0009 feef 06e2 f33f 1001 0d06
000000c0: 1006 cee6 1ae0 0e06 02e9 fee3 e6fc 3909
000000d0: fd09 04e5 0501 0fea 05e4 e440 16fd 0708
000000e0: 1502 d0e0 18e9 17f6 00e6 f0e5 eaff 2d10
000000f0: fb07 05e5 0307 13f7 02dc e739 11fe 090f

sequential_2/conv2d_2/Conv2D i1 [32, 3, 1, 1]
-127 53 3 127 52 71 127 32
111 -107 -127 96 -127 -116 -109 72
77 -127 -127 73 -14 127 74 -8
-15 127 77 127 -11 -101 83 33
127 114 27 -127 127 -31 -80 110
-46 127 -91 3 -127 89 -127 30
127 -79 127 72 -127 84 -107 127
-67 77 83 -127 127 42 104 122
67 127 -127 -101 -105 127 25 -126
127 28 69 54 97 -127 127 -54
-61 -98 -2 -127 -88 -127 -76 -6
10 127 -11 127 1 -127 41 13
00000000: 8135 037f 3447 7f20 6f95 8160 818c 9348
00000010: 4d81 8149 f27f 4af8 f17f 4d7f f59b 5321
00000020: 7f72 1b81 7fe1 b06e d27f a503 8159 811e
00000030: 7fb1 7f48 8154 957f bd4d 5381 7f2a 687a
00000040: 437f 819b 977f 1982 7f1c 4536 6181 7fca
00000050: c39e fe81 a881 b4fa 0a7f f57f 0181 290d
